Model/Tourism/Model 1/model/model.tflite (tflite, 419880 bytes, 9 tensors)

model/embedding/embedding_lookup f4 [300, 128]
-0.16040967 0.099889934 -0.12763728 0.15318148 0.0916786 -0.004824868 0.056619722 -0.035640504
-0.13406554 -0.1172798 0.035300814 -0.050602727 0.19891572 -0.15466124 0.030230314 0.007215667
0.062260266 -0.00013532239 -0.10473693 -0.08633879 0.04000769 -0.037044108 -0.076607 0.05446302
0.0036558076 -0.09021677 -0.09865481 0.085374884 -0.0019138142 -0.12174317 -0.031619485 0.0994374
-0.013965304 -0.04231598 -0.022111349 0.07820071 0.15134822 0.08095385 0.047323048 0.10525472
0.13241726 0.1728939 -0.19646946 0.014243425 0.19337502 0.2296632 -0.015315104 0.016232898
0.052268405 -0.12752865 0.016138665 0.27613518 0.15024091 -0.048856378 -0.06746082 -0.038722828
0.15818338 -0.14074753 -0.030600864 0.056512628 0.14651093 -0.08053304 0.060484957 0.023422118
-0.0073424983 0.28115845 -0.071335934 0.2516342 -0.00381229 0.10834891 -0.09749701 -0.024190672
0.2802897 -0.23629273 0.07002436 -0.13561307 0.22765799 0.0459221 0.081989564 -0.077069096
0.095866606 -0.14161566 0.043934524 -0.12860003 -0.030693302 0.104888014 0.09583302 -0.13488531
-0.11803646 0.04440857 -0.03173251 -0.082634374 -0.0065609254 -0.095892414 -0.18729675 0.1566797
0.11377749 0.076333545 -0.18253088 -0.025142757 -0.1800096 -0.10040159 -0.0993681 -0.13762702
-0.023058588 0.02769413 -0.020504007 -0.06519531 -0.07202018 -0.111982375 0.13738647 0.09898573
-0.019061651 -0.13584808 -0.19727835 0.084911875 -0.16837075 -0.012994902 0.09460318 -0.017150102
0.049511183 -0.11706122 0.03928586 0.09377011 0.120317295 0.13705139 0.359006 0.1199517
0.03119891 0.07745983 -0.053876325 0.14907227 0.005367164 -0.050085463 0.13852714 0.07655288
-0.05712006 0.14547026 0.028064778 -0.073574595 -0.015927512 0.06433919 -0.093257286 0.009901152
0.039845817 -0.009301976 0.06835465 0.02835706 -0.14171001 -0.017105054 0.044829972 -0.0019580584
0.009831474 0.026040068 -0.006945946 -0.058953438 0.130312 0.0393326 -0.0071297362 -0.055231154
0.055900805 0.14815336 0.044448636 -0.16671047 0.048113782 -0.03146342 -0.02034123 -0.017429667
-0.089793526 0.07382057 0.06404565 -0.0012982344 0.039053258 -0.24475375 0.006687299 -0.23811002
-0.03240562 0.002069926 -0.13300796 -0.109725185 0.04646199 -0.25601768 0.020952212 -0.089376524
-0.13646579 0.16191283 0.26993728 -0.003516659 0.028291581 0.048201077 0.19437538 -0.056202386
0.12297185 -0.021173889 0.14486974 0.17482847 -0.15491717 -0.2327761 -0.11435928 -0.029438883
0.084221415 0.023017023 0.018616792 -0.03384948 0.025463788 -0.024429481 -0.0072415434 0.14328508
-0.017011447 0.12047838 -0.20487931 -0.04835069 0.05909256 -0.028918376 0.011278306 0.16643137
-0.073219866 0.0021514206 -0.030804738 0.065123186 -0.14489491 -0.05353973 -0.007699041 -0.07129812
0.021193407 -0.0032987949 -0.04097041 0.117606446 -0.08852173 -0.007447015 0.0030584629 0.14589112
0.12914576 0.037118644 -0.124738194 0.11573507 0.06749968 -0.059890557 -0.15120843 0.07154237
0.017652834 -0.003932178 0.058562472 0.038356047 0.20043983 -0.18803982 0.008651826 -0.10710147
0.12324556 -0.020887615 0.023391787 0.0072520357 -0.013698024 0.14987142 0.044331074 -0.01571452
00000000: 6f42 24be 1893 cc3d 59b3 02be 9bdb 1c3e
00000010: fdc1 bb3d ed19 9ebb 15ea 673d c7fb 11bd
00000020: 7a48 09be 6430 f0bd 9697 103d ce44 4fbd
00000030: 90b0 4b3e 845f 1ebe 90a5 f73c 6771 ec3b
00000040: 9f04 7f3d 54e5 0db9 5180 d6bd 64d2 b0bd
00000050: 1bdf 233d 90bb 17bd 21e4 9cbd 9e14 5f3d
00000060: 4696 6f3b 92c3 b8bd 880b cabd 07d9 ae3d
00000070: f3d8 faba 7c54 f9bd 6f83 01bd d6a5 cb3d
00000080: bbce 64bc 8553 2dbd dc22 b5bc b227 a03d
00000090: 07fb 1a3e 22cb a53d d0d5 413d c98f d73d
000000a0: 6498 073e 190b 313e 4a2f 49be 415d 693c
000000b0: 1a04 463e d42c 6b3e 34ec 7abc dbfa 843c
000000c0: 6517 563d df96 02be 3c35 843c 9761 8d3e
000000d0: c1d8 193e a01d 48bd e628 8abd d49b 1ebd
000000e0: d3fa 213e 1f20 10be aaae fabc c979 673d
000000f0: f606 163e 82ee a4bd 13bf 773d bedf bf3c
00000100: 5799 f0bb 00f4 8f3e 9318 92bd 33d6 803e
00000110: 9dd7 79bb 09e6 dd3d 83ac c7bd 842b c6bc
00000120: 2282 8f3e b9f6 71be ef68 8f3d 27de 0abe
00000130: 2d1f 693e d018 3c3d 25ea a73d 67d6 9dbd
00000140: b655 c43d b203 11be b0f4 333d baaf 03be
00000150: 8570 fbbc 87cf d63d 1a44 c43d 601f 0abe
00000160: 19bd f1bd c3e5 353d f3f9 01bd 363c a9bd
00000170: 08fd d6bb 3e63 c4bd b8ca 3fbe a570 203e
00000180: 2c04 e93d c354 9c3d 60e9 3abe 2ff8 cdbc
00000190: 7054 38be 599f cdbd 8181 cbbd 19ee 0cbe
000001a0: 5de5 bcbc cdde e23c 05f8 a7bc 1e85 85bd
000001b0: 517f 93bd 0457 e5bd 0aaf 0c3e 08b9 ca3d
000001c0: 2e27 9cbc c21b 0bbe 5603 4abe 47e6 ad3d
000001d0: 6269 2cbe 92e8 54bc 50bf c13d 5f7e 8cbc
000001e0: 3dcc 4a3d cbbd efbd 36ea 203d 8b0a c03d
000001f0: ea68 f63d 3357 0c3e a2cf b73e 3da9 f53d
00000200: db94 ff3c 42a3 9e3d 6cad 5cbd 67a6 183e
00000210: 09df af3b 6a26 4dbd 0fda 0d3e c2c7 9c3d
00000220: b9f6 69bd 28f6 143e 1be8 e53c 47ae 96bd
00000230: 6a7a 82bc 44c4 833d adfd bebd 7138 223c
00000240: 5e35 233d 5167 18bc 86fd 8b3d 114d e83c
00000250: 6e1c 11be e61f 8cbc a29f 373d c552 00bb
00000260: 3114 213c fb51 d53c d19a e3bb 2979 71bd
00000270: 8270 053e 381b 213d 90a0 e9bb 103a 62bd
00000280: 3ef8 643d 84b5 173e c60f 363d 26b6 2abe
00000290: f512 453d c9df 00bd a7a2 a6bc a9c8 8ebc
000002a0: abe5 b7bd 3d2f 973d 5e2a 833d 8529 aaba
000002b0: 4ff6 1f3d baa0 7abe 2121 db3b 1dd3 73be
000002c0: c1bb 04bd 98a7 073b 3d33 08be 99b7 e0bd
000002d0: ed4e 3e3d c014 83be f9a3 ab3c 0a0b b7bd
000002e0: b0bd 0bbe 7acc 253e 3835 8a3e bf77 66bb
000002f0: bfc3 e73c 7e6e 453d 570a 473e 7934 66bd
00000300: aad8 fb3d dd74 adbc bc58 143e 3c06 333e
00000310: 9ba2 1ebe dc5c 6ebe 3335 eabd d029 f1bc
00000320: 477c ac3d 328e bc3c 3e82 983c c1a5 0abd
00000330: 6f99 d03c 5620 c8bc 784a edbb 53b9 123e
00000340: 975b 8bbc 5ebd f63d e2cb 51be 600b 46bd
00000350: 0a0b 723d 3be6 ecbc a5c8 383c fc6c 2a3e
00000360: 4cf4 95bd d9fe 0c3b 385a fcbc 4e5f 853d
00000370: 555f 14be 7a4c 5bbd 3d48 fcbb c004 92bd
00000380: cc9d ad3c 9830 58bb 97d0 27bd a6db f03d
00000390: e14a b5bd 1706 f4bb 7e70 483b 7b64 153e
000003a0: c93e 043e b809 183d bd76 ffbd 8206 ed3d
000003b0: 463d 8a3d cd4f 75bd 62d6 1abe ce84 923d
000003c0: ad9c 903c 80d9 80bb 34df 6f3d 3b1b 1d3d
000003d0: 1940 4d3e 838d 40be 63c0 0d3c 0458 dbbd
000003e0: 2b68 fc3d 811c abbc 22a0 bf3c 7ca2 ed3b
000003f0: ad6d 60bc e577 193e 8094 353d bdbb 80bc

model/embedding_3/embedding_lookup f4 [437, 1]
-0.08590616 -0.019204212 0.03154343 -0.05510111 -0.08287051 0.1086448 0.012059023 0.09019798
-0.027837535 0.07780115 -0.013379004 0.06682793 0.018406358 -0.081673436 0.04493137 -0.00043308875
-0.0062389565 0.056217644 7.45032e-05 0.06940069 0.06649825 -0.010850813 0.09576375 -0.113625795
0.029778339 0.08856923 -0.065452635 0.0020081329 -0.013492871 0.04456301 -0.015112464 0.12708876
-0.042648863 0.060654383 0.011178751 -0.039038133 -0.056816842 -0.06888832 -0.005728367 -0.045633294
-0.07303595 0.036840692 0.04050671 0.07575616 0.109598845 -0.06352844 -0.034231186 0.03941026
0.013405199 0.045175515 0.004889788 0.03408193 0.02926207 0.04112146 -0.06326824 0.016775753
0.10430914 0.047259454 -0.033096578 0.055404007 0.048867624 0.052024737 -0.06430064 0.056166656
-0.0070641157 0.054634705 0.054263618 0.010078514 0.052262913 0.08870432 -0.055486128 0.06453673
-0.066087104 -0.073015936 0.023303596 0.050066758 0.061152842 -0.069120795 -0.17920852 -0.00396635
-0.049596142 -0.06450875 -0.005042461 -0.01330022 0.07009106 -0.048469152 0.027246766 0.049439996
-0.017238317 0.034946397 -0.008582897 0.050005797 0.04877043 0.09561885 -0.015569572 -0.060882375
-0.06927381 -0.027786447 0.01578361 -0.029468993 0.04743695 0.015524314 0.15913618 0.028713152
0.0908927 0.048754066 0.14815348 0.06139191 -0.02872201 -0.054914616 -0.046096634 0.011914051
0.046995208 0.022213459 0.0659471 0.08848826 -0.029847618 -0.010593579 0.055394832 0.022675175
0.016576778 0.04636498 0.0045883767 0.03447644 0.09029514 -0.05052016 0.09848291 0.088883765
-0.05012259 0.03690294 -0.013955288 0.041405626 -0.08861993 -0.079895616 0.057815883 0.06684342
0.060694564 -0.02130725 -0.0009333675 0.05198762 -0.17675193 0.006794598 -0.14290363 0.042246975
-0.046313968 0.10354885 0.084993325 -0.14143434 0.023259813 0.09840575 -0.04523841 0.12330573
-0.0591653 0.011654617 0.016272014 0.001954148 0.054255 0.027929567 0.019854056 -0.020599363
-0.051755667 -0.003270586 -0.0147443 0.023603769 -0.1283268 -0.07737749 -0.0012291042 -0.068962984
-0.08090338 -0.060852263 0.08354095 0.02240014 0.049008507 0.007725637 -0.033270534 -0.04226184
0.14559057 0.025380887 0.015447704 -0.013291496 0.025422055 0.0010442808 0.043661747 -0.09711169
0.0775176 -0.004588912 -0.021590993 0.1290086 -0.016478585 -0.1840439 0.044236954 0.09379404
-0.13260144 0.08859628 -0.032642275 0.048609488 -0.00074820744 0.013677306 -0.021146305 0.06562127
0.015525745 0.1298844 0.044893138 0.022420678 0.014792248 -0.09377174 -0.04935359 0.10111063
-0.08362746 0.016357085 -0.016459351 0.059089556 -0.017626395 0.109777674 -0.04989724 0.03251238
0.047074158 0.02865409 -0.08310523 0.002445867 0.0172273 -0.046458833 -0.011563659 0.087954015
0.007886237 -0.020764424 0.07466208 -0.06649282 0.022276731 -0.033849213 0.033172116 -0.039997663
0.14104576 0.08313167 -0.005163644 0.09810717 0.032714795 0.0022549678 0.059049778 -0.04121938
0.045791373 0.0699177 0.043948706 -0.0031986674 0.024467077 -0.081699826 -0.024023252 -0.040392354
0.027494857 -0.10052216 0.014676244 -0.0340045 0.028658796 0.060256515 -0.00064015447 0.05234434
00000000: 92ef afbd 2752 9dbc af33 013d b4b1 61bd
00000010: 04b8 a9bd 2a81 de3d 3593 453c b8b9 b83d
00000020: 8b0b e4bc 3656 9f3d 9c33 5bbc 15dd 883d
00000030: eec8 963c 6744 a7bd f509 383d 3010 e3b9
00000040: 2970 ccbb 7944 663d 9a3e 9c38 f321 8e3d
00000050: 3c30 883d 9cc7 31bc c91f c43d a4b4 e8bd
00000060: b4f1 f33c c963 b53d 080c 86bd e19a 033b
00000070: 3411 5dbc b487 363d 459a 77bc 8e23 023e
00000080: 93b0 2ebd bb70 783d 1427 373c 73e6 1fbd
00000090: c7b8 68bd 5215 8dbd 06b5 bbbb fae9 3abd
000000a0: df93 95bd 44e6 163d 5dea 253d 0c26 9b3d
000000b0: 5c75 e03d 331b 82bd 0036 0cbd a76c 213d
000000c0: 7ba1 5b3c f609 393d 843a a03b 7e99 0b3d
000000d0: 02b7 ef3c fa6e 283d c792 81bd 4e6d 893c
000000e0: 08a0 d53d 2193 413d 4790 07bd 50ef 623d
000000f0: 6b29 483d e417 553d 0eb0 83bd 020f 663d
00000100: 197a e7bb a4c8 5f3d 8743 5e3d 5a20 253c
00000110: a311 563d 9caa b53d 6c45 63bd d52b 843d
00000120: ad58 87bd 6189 95bd 2fe7 be3c cd12 4d3d
00000130: 677b 7a3d 348f 8dbd 7082 37be 28f8 81bb
00000140: 5325 4bbd 2a1d 84bd 3b3b a5bb 2ae9 59bc
00000150: e78b 8f3d 9787 46bd 9c34 df3c 9881 4a3d
00000160: 5f37 8dbc f423 0f3d 479f 0cbc e1d2 4c3d
00000170: 81c3 473d d1d3 c33d 8517 7fbc cc5f 79bd
00000180: 6ddf 8dbd 67a0 e3bc a14c 813c f568 f1bc
00000190: 3f4d 423d b159 7e3c 98f4 223e d837 eb3c
000001a0: f425 ba3d 58b2 473d 8cb5 173e 1576 7b3d
000001b0: 6c4a ebbc 26ee 60bd d3cf 3cbd 2733 433c
000001c0: 0c7e 403d 00f9 b53c 460f 873d 5539 b53d
000001d0: fe82 f4bc b190 2dbc b1e5 623d 4ac1 b93c
000001e0: 06cc 873c 35e9 3d3d 185a 963b 2b37 0d3d
000001f0: a9ec b83d 3aee 4ebd 68b1 c93d b108 b63d
00000200: 584d 4dbd 8a27 173d b8a4 64bc f298 293d
00000210: 5e7e b5bd 50a0 a3bd 59d0 6c3d 34e5 883d
00000220: dd9a 783d 8b8c aebc 3cad 74ba f8f0 543d
00000230: 75fe 34be 38a5 de3b 5455 12be 2a0b 2d3d
00000240: b7b3 3dbd 6b11 d43d fb10 ae3d 2ad4 10be
00000250: 5d8b be3c f488 c93d e94b 39bd b787 fc3d
00000260: 5057 72bd 02f3 3e3c e34c 853c 2a11 003b
00000270: 7e3a 5e3d 8ccc e43c f9a4 a23c ffbf a8bc
00000280: c0fd 53bd 5457 56bb 1492 71bc b15c c13c
00000290: 1a68 03be 1778 9ebd e519 a1ba 773c 8dbd
000002a0: acb0 a5bd 3940 79bd 8517 ab3d 8080 b73c
000002b0: 25bd 483d 5727 fd3b af46 08bd c01a 2dbd
000002c0: b215 153e 94eb cf3c 5e18 7d3c 93c4 59bc
000002d0: ea41 d03c 40e0 883a a9d6 323d 7ee2 c6bd
000002e0: 8cc1 9e3d 955e 96bb 98df b0bc d51a 043e
000002f0: 19fe 86bc 0176 3cbe cf31 353d 1717 c03d
00000300: acc8 07be f771 b53d e8b3 05bd be1a 473d
00000310: 5a23 44ba c716 603c 043b adbc 7264 863d
00000320: b25f 7e3c 6b00 053e dee1 373d 92ab b73c
00000330: 2f5b 723c 660b c0bd fd26 4abd 1713 cf3d
00000340: e044 abbd 4bff 853c c3d5 86bc e407 723d
00000350: 3b65 90bc 1ed3 e03d 0c61 4cbd b42b 053d
00000360: d5d0 403d fbbb ea3c 1333 aabd d74a 203b
00000370: 4420 8d3c 9e4b 3ebd 8075 3dbc 3c21 b43d
00000380: 4735 013c 271a aabc 6fe8 983d 632d 88bd
00000390: b17d b63c 79a5 0abd 7cdf 073d 97d4 23bd
000003a0: 4d6e 103e f040 aa3d c933 a9bb 69ec c83d
000003b0: f3ff 053d 15c8 133b 2ede 713d a7d5 28bd
000003c0: bc8f 3b3d 0331 8f3d 8f03 343d bca0 51bb
000003d0: 2e6f c83c 3d52 a7bd 69cc c4bc 7472 25bd
000003e0: e53c e13c 90de cdbd a174 703c 4d48 0bbd
000003f0: dac5 ea3c 89cf 763d 0ad0 27ba 0567 563d

model/embedding_2/embedding_lookup f4 [437, 128]
0.22298208 -0.010254386 0.18670933 0.28143498 -0.005975547 0.14810915 0.032430403 -0.02398502
-0.11648108 -0.093330935 0.031568225 0.18634868 0.27659935 -0.13581121 -0.14040096 0.118319266
0.10797781 0.015191511 -0.13847917 -0.08970529 -0.05362277 0.06110146 0.025924766 -0.0148807755
-0.10393517 -0.15068524 -0.082582645 -0.19545981 0.07423672 0.13850658 0.03819344 0.08348434
-0.0815061 0.05562371 0.19377743 0.06423688 0.031915348 0.046044532 -0.20202878 0.06347188
-0.067632265 0.10775804 -0.07276102 -0.041607767 -0.09379931 0.20082259 -0.020162009 -0.14064328
0.28906986 0.1312409 0.16553107 -0.2384546 0.07280877 0.15597746 0.023609558 -0.18695597
-0.12281708 -0.11935256 -0.18291602 0.12420325 0.118877634 0.00044563343 0.04617665 0.06645906
0.06495135 -0.047177073 0.048539575 0.12063983 -0.05580369 -0.00494574 0.011239585 -0.050672777
0.022996482 0.26061118 0.019454315 -0.10730024 -0.041495044 -0.16267508 0.083517596 0.11252042
0.026010655 0.004638701 -0.031943496 -0.12730677 -0.037905212 -0.069000065 0.11478594 0.0069984626
0.0075388923 -0.013950285 0.018836925 0.22704588 0.19854198 0.101901695 0.15968166 -0.08851512
-0.17030065 -0.12923856 -0.095808536 -0.020707056 0.10187157 -0.12397562 0.23466074 -0.054082084
-0.09551269 -0.2552367 -0.00023348116 -0.03806519 -0.16204317 -0.07799573 0.03617025 -0.061792735
-0.11804021 -0.16229619 0.06727138 -0.11120565 -0.20845729 -0.0019333146 0.04860726 -0.0053622937
0.16513258 -0.025518604 -0.024606666 0.013330452 0.030581359 0.07134057 0.12377408 -0.09614151
-0.08854333 0.023103058 0.006666971 -0.20910358 -0.057025567 0.10355106 -0.02212103 -0.018296039
0.042568658 -0.17067997 -0.023173397 -0.00493479 0.24255992 0.07363006 0.034780063 0.08122675
0.06702217 0.10130912 -0.06394335 0.1338931 -0.10207184 0.14021447 -0.11726863 0.04624618
0.003964498 -0.15016851 -0.0041795284 -0.020051552 0.10958156 0.02807688 0.033998523 -0.09794693
-0.063551985 0.0029439658 -0.02360268 0.08418994 -0.07326108 -0.08081983 0.022839464 0.06798589
-0.066477425 0.03096393 0.035903737 0.06540279 -0.045884274 -0.109642036 0.11656182 0.14954363
-0.06383852 0.14919242 0.0599047 -0.05617047 0.025882222 0.11139011 0.013845136 0.030096274
-0.046388354 0.086405836 0.22492439 0.05978146 0.05452214 0.10399474 0.012632518 -0.19077986
-0.033159286 -0.04104245 0.03177747 -0.024542322 -0.15026723 0.029009236 -0.011730203 0.08458923
-0.0822981 0.071471564 0.056467608 0.04674768 0.0028004267 0.02184529 0.015923139 0.032892365
-0.13896544 0.08803593 -0.041414034 -0.089872256 0.16127834 -0.07474111 0.018900195 0.07488966
-0.21834564 -0.089285724 -0.033198554 -0.06693375 -0.06707186 0.01841942 -0.007112243 0.048617058
0.07057176 0.052568525 0.1137906 -0.075762905 -0.017543131 -0.07792885 -0.0058677057 0.13996148
0.046035126 0.26414534 0.020601163 -0.120481476 -0.10127451 -0.17097244 -0.12851714 -0.10222257
0.13363694 0.015072086 0.05462763 0.23518384 -0.11414891 -0.06377894 0.111317515 -0.08385594
-0.14038654 -0.03267513 0.021435514 0.084796384 0.070269026 0.018091686 -0.13879277 -0.1473705
00000000: 6a55 643e 0302 28bc bb30 3f3e 3f18 903e
00000010: 85ce c3bb eda9 173e bed5 043d 3c7c c4bc
00000020: a28d eebd 4a24 bfbd af4d 013d 30d2 3e3e
00000030: 6e9e 8d3e 1812 0bbe 45c5 0fbe 5f51 f23d
00000040: 7823 dd3d d1e5 783c 7ccd 0dbe 68b7 b7bd
00000050: 8da3 5bbd 8645 7a3d 2d60 d43c 7fce 73bc
00000060: f6db d4bd 3b4d 1abe 1721 a9bd 9e26 48be
00000070: 6c09 983d abd4 0d3e b970 1c3d d6f9 aa3d
00000080: acec a6bd b0d5 633d 976d 463e a08e 833d
00000090: abb9 023d 3199 3c3d a2e0 4ebe 8cfd 813d
000000a0: c982 8abd 3fb0 dc3d bb03 95bd e86c 2abd
000000b0: da19 c0bd 70a4 4d3e cc2a a5bc cb04 10be
000000c0: f700 943e 0464 063e fa80 293e 712d 74be
000000d0: c41c 953d 8eb8 1f3e d568 c13c 6371 3fbe
000000e0: 8587 fbbd 1d6f f4bd 564e 3bbe 465e fe3d
000000f0: 1e76 f33d e8a3 e939 ba23 3d3d b01b 883d
00000100: 3705 853d bf3c 41bd 6fd1 463d 0412 f73d
00000110: 6992 64bd e00f a2bb 3c26 383c 428e 4fbd
00000120: 1e63 bc3c d46e 853e a85e 9f3c 3ac0 dbbd
00000130: b5f6 29bd 4c94 26be 460b ab3d 1b71 e63d
00000140: 4c14 d53c 3f00 983b 2fd7 02bd b55c 02be
00000150: 7f42 1bbd e84f 8dbd e414 eb3d 5c53 e53b
00000160: d008 f73b bc8f 64bc e54f 9a3c b77e 683e
00000170: 974e 4b3e d6b1 d03d 9783 233e 6a47 b5bd
00000180: 4b63 2ebe 1d57 04be 4437 c4bd d8a1 a9bc
00000190: 0ba2 d03d eee6 fdbd e84a 703e 2d85 5dbd
000001a0: 289c c3bd 62ae 82be 9fd2 74b9 3fea 1bbd
000001b0: a5ee 25be 3abc 9fbd 4227 143d 611a 7dbd
000001c0: 11bf f1bd f930 26be 94c5 893d cabf e3bd
000001d0: d475 55be 4667 fdba 6818 473d 2eb6 afbb
000001e0: 8418 293e 640c d1bc eb93 c9bc f867 5a3c
000001f0: c285 fa3c 011b 923d 447d fd3d d7e5 c4bd
00000200: 3556 b5bd a042 bd3c 9b76 da3b 401f 56be
00000210: a493 69bd 9412 d43d 2a37 b5bc 93e1 95bc
00000220: 795c 2e3d bbc6 2ebe 23d6 bdbc 05b4 a1bb
00000230: a161 783e 5bcb 963d 8a75 0e3d 365a a63d
00000240: eb42 893d 287b cf3d bbf4 82bd 461b 093e
00000250: 0a0b d1bd 6294 0f3e 892a f0bd a26c 3d3d
00000260: 9fe8 813b c6c5 19be 6df4 88bb 2743 a4bc
00000270: 4c6c e03d 7c01 e63c 0942 0b3d 6698 c8bd
00000280: 8b27 82bd 8def 403b 685a c1bc c66b ac3d
00000290: e809 96bd de84 a5bd d419 bb3c 303c 8b3d
000002a0: 5125 88bd 11a8 fd3c cc0f 133d e6f1 853d
000002b0: 26f1 3bbd 018c e0bd f7b7 ee3d f721 193e
000002c0: c5bd 82bd e6c5 183e a15e 753d 0213 66bd
000002d0: f406 d43c 7f20 e43d b6d6 623c 768c f63c
000002e0: b701 3ebd 8bf5 b03d 9452 663e 67dd 743d
000002f0: 9c52 5f3d 32fb d43d 9ff8 4e3c cc5b 43be
00000300: 08d2 07bd 211c 28bd 1829 023d fb0c c9bc
00000310: a7df 19be c7a4 ed3c 0a30 40bc 1e3d ad3d
00000320: e88b a8bd af5f 923d 944a 673d 7f7a 3f3d
00000330: 5d87 373b e5f4 b23c 3e71 823c 25ba 063d
00000340: f54c 0ebe 2f4c b43d c3a1 29bd f20e b8bd
00000350: 2626 253e de11 99bd 95d4 9a3c c05f 993d
00000360: 0096 5fbe 6fdb b6bd 35fb 07bd 9014 89bd
00000370: f95c 89bd 53e4 963c d20d e9bb ae22 473d
00000380: ed87 903d 1852 573d 0c0b e93d 9529 9bbd
00000390: 9db6 8fbc 2999 9fbd e245 c0bb 1052 0f3e
000003a0: 548f 3c3d 0f3e 873e c5c3 a83c febe f6bd
000003b0: 0369 cfbd 6613 2fbe ff99 03be 115a d1bd
000003c0: 1fd8 083e e9f0 763c 39c1 5f3d 08d4 703e
000003d0: e7c6 e9bd 889e 82bd 70fa e33d aabc abbd
000003e0: 7dc1 0fbe 5bd6 05bd 8899 af3c baa9 ad3d
000003f0: 35e9 8f3d 0435 943c b11f 0ebe 4be8 16be

model/embedding_1/embedding_lookup f4 [300, 1]
0.030987998 0.044540413 0.033453025 0.112495266 0.030017767 0.008436649 0.14862895 0.08919582
0.104809694 0.15454805 -0.022792725 0.1545977 -0.0125039285 0.10513709 0.08938555 0.09663305
0.10339653 0.12733571 0.069667116 0.009879142 0.06100154 0.030218475 0.04696098 0.079033405
0.13881046 0.116743825 0.047132984 0.10606968 0.08119247 0.10207541 0.07602337 -0.03578621
0.071078606 0.07425796 0.008456566 0.07466072 0.08826798 0.0011923457 0.16985613 0.09470167
0.058957968 0.07732558 0.12156172 0.13892089 0.071373135 0.061178476 -0.083010115 -0.05145865
-0.16433057 -0.0033306868 -0.028590133 -0.009960309 0.042472236 0.008709701 0.025754461 0.009069941
0.0135713 -0.187611 0.052279904 -0.048541248 0.06768089 -0.1197935 -0.036940165 -0.03198775
0.0156558 -0.10904071 -0.035860647 0.007935318 -0.05946155 0.06227241 -0.023018625 -0.04582212
-0.03949884 -0.08904164 0.0795951 -0.122935124 0.017687287 0.052410107 -0.07641964 -0.04493541
-0.005237891 0.060555696 0.0718166 0.065846786 -0.034118045 -0.0827486 0.06507938 -0.054270353
0.05291158 -0.11110951 0.009837511 0.011174619 0.092409804 -0.026751444 0.067848325 -0.014764479
0.007560339 0.0070300153 0.04511166 -0.033873904 -0.021413887 -0.19134529 0.022818217 -0.0022582714
0.0783559 -0.07594361 -0.124641985 0.008601927 0.008016798 -0.077442005 0.067901045 0.05138641
0.027565956 0.0699404 0.09758396 -0.12066422 0.026055034 0.060805682 0.029208355 -0.0034825671
-0.041277204 0.06811208 -0.07401863 0.07110872 0.036506824 0.08465439 -0.047882166 0.037618235
0.03033751 0.08772152 -0.0023793806 -0.019666238 0.066787355 0.055896454 0.053183798 -0.06846753
0.0735713 0.06804075 -0.038354356 0.056251753 0.112676404 0.0017940314 0.03665992 0.0126253795
0.0361086 -0.030269984 -0.04269534 -0.059126545 -0.025186902 0.07077256 0.11036985 0.038439997
0.032486923 0.10998778 -0.010469923 -0.0074417857 0.049015637 -0.008464635 -0.059551578 -0.06528848
0.016964914 0.005221513 0.09053492 0.052997485 0.08157922 -0.015242849 0.03470893 0.08536123
0.09397361 0.019714264 -0.03914047 0.043187257 0.05287781 -0.12663788 0.036364462 0.052858572
0.023583377 -0.0008927199 0.05818567 0.005381061 0.02606946 0.013938746 -0.04246992 0.08320971
-0.07631216 -0.07218573 0.07857383 -0.06151487 0.060285907 -0.0915325 0.012933303 0.0056421864
-0.011437708 -0.029015949 0.019352535 0.022938829 -0.013847254 0.03048361 -0.03997853 0.02013767
0.06994312 0.0025953793 -0.03227096 0.019780964 0.058782805 0.047765166 -0.047444798 0.096729085
-0.028692558 0.0027770353 -0.006880271 0.04709381 0.04362967 0.009493478 0.013198537 0.020707134
-0.019987147 -0.009774084 0.008662535 -0.12875602 0.022217093 -0.038071975 0.09136713 0.05927645
0.048487406 0.014741496 0.03841329 0.02392592 0.025223672 0.08292807 0.03851205 0.012300488
0.04007143 0.08222071 0.05397465 -0.078469895 0.017212864 0.041332673 0.016905373 -0.0032207975
-0.06669951 0.038639348 0.091313176 -0.042279176 -0.012393055 0.081811585 -0.060877472 0.07334373
0.062188085 0.0030156176 0.025851877 0.02740942 0.03979169 0.029490314 -0.011774418 -0.064420134
00000000: 8bda fd3c 0270 363d 0a06 093d eb63 e63d
00000010: d2e7 f53c df39 0a3c 3032 183e 4cac b63d
00000020: 77a6 d63d d841 1e3e cfb7 babc dc4e 1e3e
00000030: 47dd 4cbc 1d52 d73d c50f b73d 8ce7 c53d
00000040: 8fc1 d33d 4b64 023e a2ad 8e3d 20dc 213c
00000050: c0dc 793d bc8c f73c 285a 403d 44dc a13d
00000060: 5424 0e3e 6317 ef3d 840e 413d 0f3b d93d
00000070: 3d48 a63d ea0c d13d 24b2 9b3d 9094 12bd
00000080: a991 913d 8f14 983d 698d 0a3c b8e7 983d
00000090: d8c5 b43d 7c48 9c3a c4ee 2d3e f3f2 c13d
000000a0: e97d 713d e05c 9e3d 5af5 f83d 4741 0e3e
000000b0: 142c 923d 4896 7a3d 3501 aabd 4ec6 52bd
000000c0: 4646 28be a747 5abb db35 eabc 9030 23bc
000000d0: 5ef7 2d3d 22b3 0e3c 05fb d23c 179a 143c
000000e0: 285a 5e3c 191d 40be 7423 563d 30d3 46bd
000000f0: 479c 8a3d 4b56 f5bd 924e 17bd 9605 03bd
00000100: 9840 803c bc50 dfbd 9de2 12bd 2303 023c
00000110: f48d 73bd 5b11 7f3d 8e91 bcbc faaf 3bbd
00000120: 89c9 21bd 775b b6bd c102 a33d 69c5 fbbd
00000130: eee4 903c fbab 563d e681 9cbd 310e 38bd
00000140: 9da2 abbb 4009 783d 9514 933d aeda 863d
00000150: 5dbf 0bbd 1978 a9bd 5748 853d 974a 5ebd
00000160: d0b9 583d 628d e3bd 832d 213c c015 373c
00000170: 5a41 bd3d d825 dbbc 10f4 8a3d b7e6 71bc
00000180: b8bc f73b 0b5c e63b 01c7 383d 5dbf 0abd
00000190: 2d6c afbc 05f0 43be 45ed ba3c 82ff 13bb
000001a0: 0f79 a03d 5388 9bbd 4c44 ffbd 19ef 0c3c
000001b0: e358 033c ea99 9ebd b40f 8b3d 8e7a 523d
000001c0: 00d2 e13c ea3c 8f3d 19da c73d cd1e f7bd
000001d0: 5e71 d53c 610f 793d 5c46 ef3c c83b 64bb
000001e0: 4912 29bd 597e 8b3d 1497 97bd 73a1 913d
000001f0: 2e88 153d 485f ad3d 1720 44bd 9415 1a3d
00000200: 5f86 f83c 57a7 b33d 62ef 1bbb 171b a1bc
00000210: cfc7 883d aef3 643d 41d7 593d b438 8cbd
00000220: 8dac 963d f358 8b3d 7519 1dbd 3d68 663d
00000230: e3c2 e63d b425 eb3a b628 163d aeda 4e3c
00000240: 9de6 133d c2f8 f7bc 4fe1 2ebd ad2e 72bd
00000250: c354 cebc 34f1 903d 9709 e23d 4273 1d3d
00000260: 0211 053d 4641 e13d 0a8a 2bbc 39da f3bb
00000270: 9fc4 483d 41af 0abc 5bec 73bd f7b5 85bd
00000280: 01fa 8a3c 3a19 ab3b 5f6a b93d e413 593d
00000290: 0213 a73d 24bd 79bc f32a 0e3d ded1 ae3d
000002a0: 3c75 c03d cf7f a13c c251 20bd 1fe5 303d
000002b0: 6796 583d 5cad 01be e7f2 143d 3b82 583d
000002c0: ed31 c13c 6b05 6aba 1954 6e3d 9d53 b03b
000002d0: 9f8f d53c 575f 643c f0f4 2dbd da69 aa3d
000002e0: 8d49 9cbd 1dd6 93bd 51eb a03d 04f7 7bbd
000002f0: 5bee 763d 6475 bbbd 34e6 533c 17e2 b83b
00000300: 3965 3bbc dbb2 edbc 3589 9e3c 36ea bb3c
00000310: 98df 62bc c4b8 f93c 87c0 23bd c1f7 a43c
00000320: 573e 8f3d 3d17 2a3b 8e2e 04bd b00b a23c
00000330: 3dc6 703d 68a5 433d 7a55 42bd e619 c63d
00000340: a80c ebbc ecfe 353b e573 e1bb 70e5 403d
00000350: 06b5 323d 888a 1b3c ad3e 583c 02a2 a93c
00000360: 16bc a3bc 7b23 20bc 4eed 0d3c 9ed8 03be
00000370: 9f00 b63c 5cf1 1bbd b11e bb3d ddcb 723d
00000380: bb9a 463d 5186 713c 4157 1d3d 4a00 c43c
00000390: e0a1 ce3c 31d6 a93d d0be 1d3d fc87 493c
000003a0: f121 243d 5563 a83d 8614 5d3d d3b4 a0bd
000003b0: fe01 8d3c 734c 293d 237d 8a3c 0414 53bb
000003c0: c199 88bd 4b44 1e3d 6702 bb3d ee2c 2dbd
000003d0: 3d0c 4bbc d58c a73d a85a 79bd 3d35 963d
000003e0: efb8 7e3d aba1 453b 51c7 d33c b889 e03c
000003f0: 9cfc 223d ac95 f13c 7de9 40bc b4ee 83bd

model/dense/BiasAdd/ReadVariableOp f4 [128]
-0.005985763 -0.1720843 0.18095717 -0.05274762 -0.06969747 0.07338552 -0.0059668007 -0.08760398
0.15769878 0.039005745 0.17233837 -0.27852267 -0.13191518 0.17650425 -0.08352972 -0.012641942
0.05835217 0.10985834 0.124226816 0.24497825 0.11402279 -0.065760225 -0.048407376 0.24787228
0.025586745 0.020645345 0.14216977 -0.009498943 -0.29269814 -0.06770162 0.028291399 -0.003498901
0.07317867 0.120472595 -0.05521994 0.049190804 0.10061376 -0.06073958 0.1432269 -0.01565789
-0.043095786 0.1649448 0.04867562 0.13448752 -0.01684602 -0.08534567 0.10315978 -0.014234932
0.11599296 0.03487034 0.073001206 -0.0500558 -0.21567126 -0.008185931 0.18016177 -0.06222127
0.17820035 0.1281751 -0.057570294 0.15325871 -0.06976918 0.22317922 -0.022038486 0.06806885
-0.07912019 0.16378856 -0.2988674 0.07941022 0.037027795 0.12383612 -0.215262 -0.03435055
-0.057894982 0.10691571 0.14882188 0.22473522 0.18398964 -0.047947668 -0.05141955 0.22515953
-0.0863337 0.14947192 -0.048784368 -0.009109883 0.065323435 -0.07119726 0.05526206 0.07883847
-0.024400666 0.27679306 -0.0010231105 -0.009775485 -0.022641307 -0.2798535 0.24208458 0.12031331
-0.036889963 0.0959614 0.23159207 0.14905003 0.047672834 -0.32230082 -0.081605524 0.15407418
0.09605685 -0.08461088 -0.018373583 -0.0629984 0.23452364 -0.19071071 -0.029919486 0.11520331
0.022360632 -0.2918358 0.14389877 0.03968207 0.075955816 -0.073260345 0.14509207 0.04575538
0.15508154 -0.03171302 0.027953451 0.19400367 -0.022486845 -0.067575835 0.067616746 -0.047496196
00000000: 3824 c4bb de36 30be d64c 393e e30d 58bd
00000010: 8cbd 8ebd 264b 963d 2785 c3bb b769 b3bd
00000020: ca7b 213e 7dc4 1f3d 7879 303e 869a 8ebe
00000030: c614 07be 88bd 343e a111 abbd 2620 4fbc
00000040: af02 6f3d 69fd e03d a16a fe3d 94db 7a3e
00000050: c884 e93d 4cad 86bd d046 46bd 3bd2 7d3e
00000060: 4b9b d13c 6d20 a93c f494 113e 74a1 1bbc
00000070: 88dc 95be 26a7 8abd 5dc3 e73c d14d 65bb
00000080: b3de 953d 56ba f63d 4e2e 62bd 4c7c 493d
00000090: 960e ce3d 11ca 78bd 13aa 123e fa44 80bc
000000a0: 3585 30bd 4ae7 283e 1660 473d 19b7 093e
000000b0: aa00 8abc b6c9 aebd 6f45 d33d a239 69bc
000000c0: b88d ed3d 34d4 0e3d a881 953d 4f07 4dbd
000000d0: edd8 5cbe 481e 06bc 547c 383e bbdb 7ebd
000000e0: 277a 363e 5540 033e d4ce 6bbd daef 1c3e
000000f0: 25e3 8ebd 1889 643e 0e8a b4bc ae67 8b3d
00000100: c409 a2bd 30b8 273e 2605 99be d3a1 a23d
00000110: 75aa 173d cb9d fd3d a46d 5cbe 2ab3 0cbd
00000120: 4a23 6dbd a0f6 da3d c364 183e fd20 663e
00000130: c867 3c3e c664 44bd 4e9d 52bd 3890 663e
00000140: b9cf b0bd 2b0f 193e 1ed2 47bd 9e41 15bc
00000150: 4bc8 853d decf 91bd 785a 623d 1076 a13d
00000160: e8e3 c7bc d2b7 8d3e e419 86ba 5b29 20bc
00000170: 437a b9bc f548 8fbe 05e5 773e d366 f63d
00000180: ee19 17bd 6987 c43d 7926 6d3e 92a0 183e
00000190: 9744 433d 9d04 a5be cc20 a7bd 9fc5 1d3e
000001a0: 74b9 c43d 7848 adbd 3284 96bc 4e05 81bd
000001b0: f726 703e ab49 43be b619 f5bc b7ef eb3d
000001c0: a52d b73c 816b 95be 335a 133e ab89 223d
000001d0: b98e 9b3d 8509 96bd 0493 143e fe69 3b3d
000001e0: b2cd 1e3e 83e5 01bd a3fe e43c e6a8 463e
000001f0: 5536 b8bc 3365 8abd a67a 8a3d 5f8b 42bd

model/dense_1/BiasAdd/ReadVariableOp f4 [64]
-0.0011489945 -0.004661763 -0.006001075 0.05301069 -0.011280608 0.06469694 0.04853979 -0.012035135
0.052744843 -0.0048719603 0.06323672 0.07664592 -0.0059860228 -0.006000757 0.05954791 0.05338451
0.032916475 0.049375597 -0.009968319 0.23460849 0.026389124 0.20747389 0.23354517 0.1954487
-0.01697619 0.13025746 0.0 -0.0080563 0.030938305 0.20012914 0.23006731 0.032970622
0.0422028 0.026526162 0.031220308 0.0687028 0.121647395 0.0 0.20171836 -0.017308906
-0.010710526 0.20826751 -0.015149625 0.12666716 -0.011121877 0.0578249 -0.011772904 -0.016969478
0.1967802 -0.007945331 -0.0058327126 0.03492786 0.0 -0.013692289 0.12553808 -0.0102427825
-0.011562821 0.10421044 0.081810385 -0.00858924 -0.011577472 -0.0056631034 0.021270957 -0.006138393
00000000: dc99 96ba b4c1 98bb aaa4 c4bb bd21 593d
00000010: 4dd2 38bc d47f 843d a9d1 463d 042f 45bc
00000020: fa0a 583d f7a4 9fbb 4182 813d 89f8 9c3d
00000030: 6626 c4bb 00a2 c4bb 82e8 733d b7a9 5a3d
00000040: 6dd3 063d 113e 4a3d 2952 23bc 353d 703e
00000050: 012e d83c 0974 543e 7726 6f3e b423 483e
00000060: a711 8bbc 3662 053e 0000 0000 92fe 03bc
00000070: 5472 fd3c a7ee 4c3e c496 6b3e 340c 073d
00000080: d8dc 2c3d 654d d93c bbc1 ff3c 0eb4 8c3d
00000090: 4522 f93d 0000 0000 428f 4e3e 68cb 8dbc
000000a0: 347b 2fbc 1444 553e 2236 78bc 09b5 013e
000000b0: 8838 36bc cdd9 6c3d 23e3 40bc 9303 8bbc
000000c0: c080 493e 222d 02bc 5720 bfbb 8410 0f3d
000000d0: 0000 0000 9f55 60bc 0e8d 003e 58d1 27bc
000000e0: fd71 3dbc 486c d53d 348c a73d e2b9 0cbc
000000f0: 70af 3dbc 8e91 b9bb 6e40 ae3c 9324 c9bb

model/dense/MatMul f4 [128, 1]
0.00014828556 0.34081194 0.12337344 -0.27702072 -0.33233768 0.16228853 -0.0013779982 -0.32460678
0.34813738 0.13896 -0.30772457 -0.25567406 -0.23798499 0.38177088 -0.31017843 0.016131323
0.12920253 0.24200077 0.27405348 -0.12700331 0.24638669 -0.23862998 0.04735305 0.17411591
0.0899501 0.07208707 -0.24924865 0.00083719986 0.605251 -0.31425175 0.09966422 0.0052567557
0.160707 -0.21139869 -0.2814318 0.17606959 -0.22113593 -0.21956165 -0.2553217 0.022572365
-0.2231673 -0.2933726 0.1741926 -0.23354317 0.0063110804 -0.31244087 0.23031233 -0.008781481
0.25587127 0.1234766 0.16389918 -0.25657126 -1.0996411 0.004558943 -0.31036675 -0.31694773
-0.32407096 -0.2221142 -0.2085341 -0.26770335 -0.25793675 0.14283316 0.029234514 0.15280695
-0.2873472 -0.28924602 0.61835563 0.17566073 0.1316895 -0.28336766 -1.0936638 -0.020573178
-0.21061106 0.23150808 -0.2619726 0.48074353 -0.33669925 -0.24102885 -0.032756336 -0.047017243
-0.31696346 0.08424435 -0.25519195 -0.0054939752 0.14673322 -0.2612494 0.12212764 0.17484656
0.035025936 0.1516014 0.021197066 0.0025594134 0.029613603 -0.24896677 0.0963254 -0.27287325
0.044865657 -0.2108738 0.12690012 -0.051723626 0.17043026 0.6593546 -0.29905635 0.33449808
0.20648614 -0.32051674 0.005306028 -0.22863148 0.5032059 -0.96139586 0.027407445 -0.25670967
0.078021556 0.58779037 -0.25201648 0.14166556 0.16800895 -0.26848212 -0.35820407 0.16342725
-0.2622091 -0.13516329 0.09851019 0.1265156 -0.0122830365 -0.24568547 0.15011445 -0.17430958
00000000: 1a7d 1b39 e77e ae3e 37ab fc3d a9d5 8dbe
00000010: 2a28 aabe f72e 263e f29d b4ba dc32 a6be
00000020: 103f b23e 884b 0e3e 138e 9dbe b6e7 82be
00000030: 56b2 73be 7977 c33e b5cf 9ebe d625 843c
00000040: ab4d 043e 0dcf 773e bd50 8c3e 280d 02be
00000050: cb4c 7c3e 6b5b 74be 46f5 413d 714b 323e
00000060: c237 b83d 63a2 933d 0a3b 7fbe 8877 5b3a
00000070: bbf1 1a3f 9be5 a0be c11c cc3d dd40 ac3b
00000080: 6090 243e e678 58be d417 90be 964b 343e
00000090: 7571 62be c5d4 60be 87b9 82be aee9 b83c
000000a0: f885 64be ef34 96be 8c5f 323e f125 6fbe
000000b0: 2ecd ce3b 40f8 9fbe ffd6 6b3e 33e0 0fbc
000000c0: 8f01 833e 4de1 fc3d 30d5 273e 4f5d 83be
000000d0: 0ac1 8cbf 3063 953b 64e8 9ebe f946 a2be
000000e0: a1ec a5be e871 63be f789 55be 6a10 89be
000000f0: 4910 84be db42 123e 387d ef3c 6d79 1c3e
00000100: 2c1f 93be 0e18 94be 8e4c 1e3f 68e0 333e
00000110: 9dd9 063e 9115 91be 2dfd 8bbf 1589 a8bc
00000120: 6daa 57be 7410 6d3e 4621 86be 0424 f63e
00000130: d863 acbe 44d0 76be 822b 06bd 2795 40bd
00000140: 0949 a2be 4d88 ac3d 85a8 82be ce06 b4bb
00000150: 3c41 163e 7bc2 85be 0e1e fa3d fa0a 333e
00000160: 5b77 0f3d 663d 1b3e 78a5 ad3c d5bb 273b
00000170: 3a98 f23c 25f1 7ebe 4046 c53d 0bb6 8bbe
00000180: 0dc5 373d 4def 57be 1bf2 013e 27dc 53bd
00000190: 4585 2e3e 77cb 283f ea1d 99be 5543 ab3e
000001a0: 1a71 533e c51a a4be 30de ad3b 5f1e 6abe
000001b0: 1ad2 003f 0a1e 76bf 9485 e03c 736f 83be
000001c0: c4c9 9f3d 6e79 163f 4e08 81be c710 113e
000001d0: 8a0a 2c3e 7d76 89be 8666 b7be 7959 273e
000001e0: 4540 86be 3f68 0abe b6bf c93d 4e8d 013e
000001f0: ca3e 49bc f994 7bbe 9ab7 193e 367e 32be

model/dense_1/MatMul f4 [64, 128]
0.09479095 0.042422347 -0.07311853 -0.13816041 0.15796387 -0.01779534 -0.08606294 -0.14951319
-0.0922628 0.016736655 -0.17660004 0.1877294 0.058628827 -0.09033029 0.049107168 -0.1251883
-0.12868567 -0.13535509 0.021946706 0.06397835 -0.06756469 0.0033071495 0.14245631 0.048583917
-0.048857808 -0.18749471 -0.10830725 0.14866468 0.022166345 0.015002479 -0.16917238 -0.011428162
-0.17377567 0.11673751 -0.115428634 -0.13988802 0.031543046 0.06592626 -0.16313657 0.14666186
-0.14131555 -0.12786806 0.046997797 0.039185278 -0.0034813047 -0.00043653295 0.0025530271 -0.029154584
0.10518446 -0.021501934 0.07554284 0.11160321 0.037536476 0.001954183 -0.14932498 -0.024102308
0.13016541 -0.09816022 -0.09680086 0.12708837 0.06877029 -0.0023062597 0.026516726 0.0053583537
0.031263545 0.023411633 0.10207917 0.09045263 0.084761605 -0.09609023 0.15596737 0.13903837
0.0010876918 0.14437318 -0.07989817 0.0587104 -0.09121509 0.08217196 0.098587334 0.07270844
0.13040334 -0.16843472 -0.11831583 -0.0050432333 -0.047145214 0.111186534 -0.05709086 -0.1533676
-0.0902553 -0.06545491 -0.18177786 0.087331146 0.09966123 0.1540293 0.09067203 0.15060174
0.102950886 -0.104774766 0.040974576 -0.18547094 -0.111768305 -0.10573025 -0.03844622 0.13575353
-0.07191969 0.14210801 -0.0123932315 -0.08587928 -0.17958777 -0.1666069 -0.112194836 0.15592228
-0.10428371 -0.14588585 0.072299846 0.14881252 0.016798966 0.059991755 -0.083008386 0.04812929
0.022620982 -0.12824908 -0.030352527 -0.07544273 0.03959998 -0.17967874 -0.07184051 -0.05391201
0.14977022 -0.11617412 0.117009506 -0.10403826 0.12952799 -0.10656409 0.120914906 0.005142966
-0.051396474 0.0041903257 -0.12668787 -0.12582761 0.13921082 -0.08215213 -0.10590912 -0.027141547
-0.026102677 -0.1377872 -0.17037728 0.029584557 -0.0022112837 0.12285317 -0.06987265 -0.0074527017
-0.035518035 0.011165082 -0.098330714 -0.06075933 0.16909699 0.07753764 -0.08333751 -0.023015123
-0.074251875 -0.064419545 -0.122964986 0.03822799 0.0035631447 0.030016372 -0.17618673 0.13698663
-0.14392713 0.16133864 -0.058062077 -0.11561601 -0.096391305 -0.014772722 0.0073906183 -0.15434049
-0.08686289 -0.014224857 0.11493967 0.07615838 0.05453767 -0.16133443 0.041289277 0.08068428
0.04839406 -0.14372551 -0.1662612 0.0759306 -0.077328615 -0.03990236 0.027642518 -0.131622
-0.010204901 0.1527341 0.17019491 -0.07058305 -0.046619594 0.114429064 -0.027650317 0.023649717
-0.028253548 0.036599044 -0.060234014 -0.1401134 -0.16563432 -0.17711756 0.043180972 -0.11968514
0.12731473 0.027281793 0.09657093 -0.046515293 0.089937374 0.032215435 0.024341822 0.14420603
0.03416534 0.031186746 -0.16048266 0.1275731 0.025209848 0.052806932 -0.17223108 0.099997684
-0.15016289 -0.030306553 -0.10694528 -0.17969356 0.07430228 0.12168203 0.10930854 -0.09904817
-0.005806744 0.13767546 0.015652908 -0.1009685 0.0015520602 -0.012435343 -0.014004096 0.074784555
-0.050613612 0.017247431 -0.024295254 0.1291445 0.077294365 0.04059185 0.13939713 -0.086969934
-0.0446713 -0.11988852 0.1189406 -0.10403406 -0.00057487504 -0.06516117 -0.0068669296 0.104380935
00000000: c221 c23d 0ec3 2d3d 2bbf 95bd ec79 0dbe
00000010: 48c1 213e 88c7 91bc c441 b0bd fc19 19be
00000020: 47f4 bcbd 4f1b 893c a4d6 34be 233c 403e
00000030: c824 703d 16ff b8bd 9924 493d 5d31 00be
00000040: 2dc6 03be 869a 0abe 94c9 b33c 1507 833d
00000050: 5b5f 8abd c3bc 583b 11e0 113e eeff 463d
00000060: 201f 48bd 9dfe 3fbe 31d0 ddbd 8e3b 183e
00000070: 3296 b53c f5cc 753c 863b 2dbe 303d 3bbc
00000080: 40f2 31be 1314 ef3d d965 ecbd ce3e 0fbe
00000090: 4833 013d 5904 873d 460d 27be 872e 163e
000000a0: 06b5 10be d8ef 02be c380 403d be80 203d
000000b0: 9a26 64bb 76de e4b9 b050 273b 98d5 eebc
000000c0: f36a d73d d324 b0bc 34b6 9a3d 3990 e43d
000000d0: d9bf 193d c011 003b a6e8 18be 3472 c5bc
000000e0: 154a 053e 3a08 c9bd 873f c6bd 7423 023e
000000f0: 70d7 8c3d 9e24 17bb 9b39 d93c 2195 af3b
00000100: 340e 003d c1c9 bf3c e20e d13d 3a3f b93d
00000110: 7e97 ad3d f4ca c4bd e9b5 1f3e 1360 0e3e
00000120: e190 8e3a 90d6 133e a7a1 a3bd 517a 703d
00000130: face babd c649 a83d 28e8 c93d 2ae8 943d
00000140: 7488 053e 277a 2cbe 924f f2bd b541 a5bb
00000150: 571b 41bd c4b5 e33d 1bd8 69bd 650c 1dbe
00000160: c5d7 b8bd 390d 86bd fa23 3abe acda b23d
00000170: 301b cc3d dbb9 1d3e 42b2 b93d 5837 1a3e
00000180: ead7 d23d 2794 d6bd f5d4 273d 18ec 3dbe
00000190: c8e6 e4bd 1a89 d8bd c979 1dbd f902 0b3e
000001a0: a14a 93bd c384 113e fb0c 4bbc 7ae1 afbd
000001b0: dbe5 37be 009b 2abe 68c6 e5bd 17aa 1f3e
000001c0: b392 d5bd 1a63 15be f111 943d 4f62 183e
000001d0: fc9d 893c eab9 753d 4d00 aabd 3823 453d
000001e0: a34f b93c ba53 03be dda5 f8bc b881 9abd
000001f0: 9733 223d b4fd 37be 1e21 93bd d7d2 5cbd
00000200: 5d5d 193e b2ec edbd aea2 ef3d 0312 d5bd
00000210: fca2 043e 463e dabd 3ca2 f73d 5386 a83b
00000220: 1c85 52bd 004f 893b 77ba 01be f4d8 00be
00000230: 488d 0e3e 603f a8bd e1e6 d8bd f357 debc
00000240: 48d5 d5bc 1618 0dbe 6277 2ebe 505b f23c
00000250: 2feb 10bb 719a fb3d 6419 8fbd cb35 f4bb
00000260: 5c7b 11bd c0ed 363c 9d61 c9bd c6de 78bd
00000270: c327 2d3e 0ecc 9e3d dbac aabd 368a bcbc
00000280: 5e11 98bd 65ee 83bd 11d5 fbbd f494 1c3d
00000290: a683 693b e5e4 f53c 4b6a 34be 3946 0c3e
000002a0: a261 13be f535 253e 80d2 6dbd 16c8 ecbd
000002b0: ce68 c5bd 4909 72bc 002d f23b 6f0b 1ebe
000002c0: 2ce5 b1bd 600f 69bc 7d65 eb3d edf8 9b3d
000002d0: e462 5f3d da34 25be f21e 293d cd3d a53d
000002e0: da38 463d c82c 13be 6040 2abe 8181 9b3d
000002f0: 775e 9ebd a870 23bd 9072 e23c ebc7 06be
00000300: 7532 27bc 5466 1c3e 9347 2e3e d98d 90bd
00000310: 30f4 3ebd c959 ea3d eb82 e2bc 0dbd c13c
00000320: fc73 e7bc e1e8 153d f1b7 76bd e379 0fbe
00000330: 0b9c 29be 4e5e 35be 88de 303d 7c1d f5bd
00000340: cb5e 023e 117e df3c fbc6 c53d d286 3ebd
00000350: 1631 b83d 55f4 033d 8068 c73c bfaa 133e
00000360: f5f0 0b3d 597b ff3c 9155 24be 86a2 023e
00000370: e284 ce3c 154c 583d 585d 30be 96cb cc3d
00000380: 4dc4 19be 7345 f8bc 2106 dbbd 9701 38be
00000390: cb2b 983d 6e34 f93d 28dd df3d c4d9 cabd
000003a0: 8046 bebb ccfa 0c3e 873a 803c 93c8 cebd
000003b0: 806e cb3a 9cbd 4bbc 7071 65bc a528 993d
000003c0: 3850 4fbd 7c4a 8d3c d706 c7bc 753e 043e
000003d0: 824c 9e3d a443 263d 1fbe 0e3e 4b1d b2bd
000003e0: 41f9 36bd 1d88 f5bd 2197 f33d cf0f d5bd
000003f0: 36b3 16ba 3873 85bd fb03 e1bb acc5 d53d

model/dense_2/MatMul f4 [1, 64]
0.004143351 -0.01790439 0.18816483 0.23556097 -0.16788681 0.4782535 0.24115859 0.12910713
0.3044558 0.24149564 0.19284232 0.5169259 -0.15282816 0.17617914 0.49868372 0.2394865
0.29259464 0.4644925 -0.15157609 -0.43711782 0.406498 -0.3696653 -0.37638655 -0.3592647
-0.29625022 0.52056086 -0.26518825 -0.115342416 0.4040326 -0.41113913 -0.40598646 0.41315413
0.2764735 0.20428343 0.40694618 0.4385211 0.41990402 -0.24746288 -0.47889674 -0.006995367
-0.012226264 -0.41495535 -0.16799855 0.4396029 -0.2862213 0.25137904 -0.26158765 -0.14839879
-0.4006165 -0.10736024 0.084935986 0.44235548 0.018002778 -0.21536501 0.50608355 -0.2661675
-0.12513842 0.6624867 0.26806614 -0.27267036 -0.22854969 -0.1708673 0.24847211 0.023038696
00000000: f3c4 873b 3aac 92bc 48ae 403e e536 713e
00000010: 85ea 2bbe a5dd f43e 47f2 763e a934 043e
00000020: a1e1 9b3e a24a 773e 7578 453e 4155 043f
00000030: fc7e 1cbe 4e68 343e 7953 ff3e f33b 753e
00000040: f7ce 953e f6d1 ed3e c336 1bbe e8cd dfbe
00000050: 8120 d03e c544 bdbe bdb5 c0be 8bf1 b7be
00000060: 1cae 97be 7a43 053f c1c6 87be a538 ecbd
00000070: 5cdd ce3e d480 d2be 75dd cfbe f088 d33e
00000080: ef8d 8d3e ad2f 513e 405b d03e d685 e03e
00000090: a9fd d63e e966 7dbe f431 f5be 6439 e5bb
000000a0: ab50 48bc 0775 d4be d007 2cbe a213 e13e
000000b0: 998b 92be c1b4 803e d1ee 85be daf5 17be
000000c0: 9b1d cdbe afdf dbbd ebf2 ad3d 6b7c e23e
000000d0: 907a 933c a588 5cbe b18e 013f 1b47 88be
000000e0: 4924 00be ba98 293f f73f 893e 739b 8bbe
000000f0: ee08 6abe d6f7 2ebe 796f 7e3e a6bb bc3c
